model/point_history_classifier/point_history_classifier.tflite (tflite, 6256 bytes, 6 tensors)

dense_2/bias f4 [3]
00000000: 96fd f83d 9ba9 ff3d 3bbf 7fbe
0.12157743 0.124835216 -0.24975292

dense_1/bias f4 [10]
00000000: e17e ddbc eb70 cb3e 9807 873e 81c6 673e
00000010: 6a69 013f 281e 03bf fe55 24bf 517c a63e
00000020: b9a8 5c3d 0fef acbd
-0.02703804 0.39734587 0.2637298 0.22634317 0.50551474 -0.5121789 -0.64193714 0.3251672
0.053871844 -0.08444034

dense/bias f4 [24]
00000000: 7291 b73c 6cc0 4a3d b212 ae3c 73a2 87be
00000010: 92a3 203d 3f36 af3e c5c3 a23e 590f 153e
00000020: 9857 883c d4fa 1a3c ba9f 733e b6da 0a3d
00000030: 06d2 693e b579 583e 6930 1a3d 5bd7 6abe
00000040: badc 5fbe a987 bd3b 28d7 513e 5dca 76be
00000050: 0dc6 483e 2f63 ad3d eee4 54be ade7 85be
0.02240822 0.049499914 0.021249149 -0.26491126 0.039218493 0.34221074 0.31789985 0.14556636
0.01664333 0.009459216 0.237914 0.033899985 0.22834024 0.21140178 0.037643824 -0.22933714
-0.21861544 0.005783994 0.20492232 -0.24100633 0.196068 0.084661834 -0.20790455 -0.26153317

sequential/dense/MatMul f4 [24, 32]
00000000: 646f 043e 302b 533e 1869 1f3e cdb0 443f
00000010: 8128 3f3d b2a8 aa3f 4529 a13e d348 903f
00000020: a94c 813d 7838 a63f bd20 b33d 1296 983f
00000030: 93b9 2c3e 8e37 6b3f 7cae a93d 7c50 423f
00000040: 5f8a 273e 9dc6 2f3f 3c02 013c ec08 5b3e
00000050: 529e 743e bb27 f5bb 1989 a03d 29b7 763d
00000060: 908b 403e 8481 2abe 46c6 573e 84e6 62be
00000070: d85f 123e 006c cfbe 8de6 ed3d 4225 0cbf
00000080: 4444 543e ed0f 15be c95a ef39 72d2 4fbe
00000090: 3c02 003f 4a7b 333e d2e8 783e 45ad 6a3e
000000a0: 9c42 92bd fd44 c13e 52dc 803e 10b2 bb3e
000000b0: 6207 08bd f851 c53e 62ce 3ebe 2d8c 6c3e
000000c0: 4845 a2bd e89b 143f cb14 1abe ef3d 2e3f
000000d0: 71fd 56be eb40 c93e 0fa3 e9bb b945 023f
000000e0: 8569 93be 55ef 493f 230c e1bd 26f1 e03e
000000f0: 0cc6 20bf f13c bb3e 3b7e 35bf 79f2 333e
00000100: 4e11 9b3e 9025 623e 4aa3 cb3e 57f7 063f
00000110: 0331 903e 969a 733f 8069 df3e c082 4f3f
00000120: d061 e73e 4fe3 733f 99ca 9e3e 3228 813f
00000130: ef98 873e 95fb 5f3f 4e58 853e 53f5 183f
00000140: 9605 a73e 8a37 d23e fa85 c13b d82c b23e
00000150: e26a 953e bd07 0d3e ed6e 883e 6cf4 09be
00000160: 1f70 b93d 189d 163d 3668 fd3c e120 babe
00000170: e5e1 dfbc 8e3a e9be e89e c53c a1b7 23bf
00000180: 3287 923e 56aa bfbd f010 213e 9981 02bf
00000190: 336b 50bf 1737 77bf 9e64 05bf 1ee1 8fbf
000001a0: 8d40 a2be 505e f5be 81cb 99be ccff a8be
000001b0: c403 cdbe 6b17 e4be 2014 8fbe d7a9 bdbe
000001c0: a874 1abf 605c b0be 816c 14bf 7643 15bc
000001d0: e012 adbe 6aac 853c 4819 02bd 4aff fb3d
000001e0: 3ff7 24bc c21b b23e 7fa3 9b3d 1040 b43e
000001f0: bda7 c53d 9231 043f f2d5 c03e ede6 383f
00000200: 1bf6 56be 5800 3f3e d2b4 4e3d 069b 483e
00000210: d772 763e f519 673d 6af6 b63e b4fa 73bd
00000220: c46f b33e 872c 3b3d 83da eb3e 9604 d5bc
00000230: 04e6 c63e eaf2 24be 76ae 093f dea9 b6be
00000240: 8df4 4f3e 9480 36bf 49c9 2e3e 2478 f2be
00000250: 51ec 443e f346 69bf 9784 2d3f 463b 58bf
00000260: cd46 053f e384 6ebf 934b 663f cb2f 09bf
00000270: e607 fd3e 5108 6abf 2fef 2b3f 89e7 43bf
00000280: 78e1 7c3e 08cc 643d d220 9b3f d550 6e3f
00000290: 10ca 643f e50a a53f ef88 c73e d3a5 b73f
000002a0: edf1 cd3e c582 763f 9bc8 053f 3720 a73f
000002b0: 4ad0 2d3d 058e 8c3f 01c8 18be e7cf 593f
000002c0: ba04 2ebe cecb f33e 69c1 7bbd 4b8a ec3e
000002d0: a5db 18bd 3669 033f 08e4 87be c79e f13e
000002e0: c87b 19be b49a 46bd 8d70 d0be fcc6 2c3e
000002f0: e8c7 d3be 9bfc dbbe 175e f6be 9e7a 1ebf
00000300: 7052 a33d 746d ac3d b690 8dbe 7324 cb3e
00000310: 93b6 8ebf 353d 5d3f dfe4 3bbf 03a9 5e3f
00000320: f9ef 4bbf 22b2 4b3f cdc2 29bf 95fb 553f
00000330: 3dec febe 2f34 263f b0b4 9ebe d7f3 023f
00000340: 92c5 b5be c1a0 f63d 4b05 aebe 7db1 053f
00000350: ccb3 07be b483 62be 5802 69be b332 67be
00000360: 6eee afbb c351 60be 17db 6a3e d4f5 3abf
00000370: 326c 173e ee62 56bf 188d 293e e299 8ebf
00000380: 10b1 7ebd 407c 7b3c 536c 183e ad2c d23d
00000390: 71be 5e3e 725a 77be 1dee eb3d ce62 05bf
000003a0: 1c70 083e f23c 88bf 11ce 523e 9017 efbe
000003b0: c584 823e 9b3b 85bf 146c 9c3e 899d 48bf
000003c0: 550c a9bd e189 12bf a848 a23b 8933 80bf
000003d0: 9dc0 5d3e de0b 84bf f540 813e 5ec6 20bf
000003e0: e821 c43e 3722 44bf 6eab 293f 907a 28bf
000003f0: c423 9c3e 75cb 8ebe dc08 fa3e 8de0 493d
0.12933117 0.20621943 0.15567434 0.76832277 0.046669487 1.3332732 0.314768 1.1272224
0.0631345 1.2985983 0.08746479 1.1920798 0.16867666 0.91881645 0.082852334 0.7590406
0.16361378 0.68662435 0.007874068 0.21390122 0.2388852 -0.007481543 0.07838649 0.06023327
0.18803239 -0.16650969 0.21071729 -0.22158247 0.14294374 -0.40512085 0.1161624 -0.5474435
0.20729166 -0.14556856 0.00045653273 -0.20295122 0.5000341 0.175275 0.24307564 0.2291766
-0.07141611 0.37747946 0.2516809 0.36659288 -0.033210166 0.385391 -0.18633416 0.23100348
-0.079233706 0.58050394 -0.15046994 0.68063253 -0.20995118 0.3930734 -0.007130034 0.5088764
-0.28791443 0.78880817 -0.10988643 0.43933982 -0.62802196 0.36569932 -0.7089574 0.17572965
0.3028664 0.22084641 0.39773017 0.5272116 0.28162393 0.95157754 0.43635178 0.81058884
0.45191813 0.9526872 0.31013945 1.0090392 0.26483867 0.8749326 0.26043934 0.59749335
0.3262145 0.41057998 0.005905864 0.34799838 0.29183108 0.13772483 0.2664713 -0.13472146
0.090545885 0.03677091 0.03093348 -0.3635321 -0.027329395 -0.45552486 0.024123624 -0.6395207
0.2861877 -0.09358661 0.15729117 -0.50979 -0.81413573 -0.96568435 -0.52106655 -1.1240575
-0.31689873 -0.47923517 -0.30038074 -0.33007658 -0.40041935 -0.44549116 -0.27945042 -0.3704364
-0.60334253 -0.34445477 -0.57978064 -0.009110322 -0.33803463 0.016317565 -0.03176239 0.12304552
-0.010068714 0.34786803 0.07599544 0.35205126 0.09651134 0.5163814 0.37663227 0.72227365
-0.2099232 0.18652475 0.050465412 0.19590387 0.24067245 0.05642124 0.35734874 -0.05956526
0.35046208 0.04569676 0.4606515 -0.026003163 0.38847363 -0.1610829 0.5378183 -0.35676473
0.20308132 -0.71289945 0.17068972 -0.47357285 0.19230773 -0.91123885 0.6778044 -0.84465444
0.5206116 -0.9317152 0.8995907 -0.5358855 0.4942009 -0.9141894 0.6716184 -0.7652517
0.24695385 0.055858642 1.2119391 0.9309209 0.8937082 1.289395 0.3897166 1.434748
0.40223637 0.9629329 0.52259225 1.3056706 0.042434968 1.0980841 -0.14920045 0.8508286
-0.1699399 0.47616428 -0.061463747 0.4619926 -0.037318844 0.51332414 -0.26541162 0.4719145
-0.14988625 -0.04848738 -0.4071087 0.16872782 -0.41363454 -0.4296616 -0.4811866 -0.6190585
0.07974708 0.08419314 -0.27649468 0.39676246 -1.1149467 0.8642152 -0.73396105 0.8697664
-0.79663044 0.79568684 -0.6631287 0.8358701 -0.4978961 0.64923376 -0.3099723 0.5115332
-0.35502297 0.1204238 -0.33988413 0.5222395 -0.13252181 -0.22120553 -0.227548 -0.22577934
-0.005368999 -0.2190619 0.22935139 -0.73031354 0.14787367 -0.83744705 0.16557729 -1.1140711
-0.06218058 0.015349448 0.14885072 0.102624275 0.21752335 -0.24155596 0.11520026 -0.5210389
0.13324016 -1.0643599 0.2058642 -0.46697664 0.2549192 -1.0408815 0.30551207 -0.7836538
-0.08254305 -0.57241637 0.004952509 -1.0015727 0.21655507 -1.0316122 0.2524487 -0.62802684
0.38307118 -0.7661471 0.66277206 -0.65812016 0.30496037 -0.278896 0.48834884 0.049286414

sequential/dense_1/MatMul f4 [10, 24]
00000000: 8d04 acbf b916 aa3b 8c09 47bf b151 033d
00000010: 4489 ed3e 0a8a 2fbf ab05 4fbe 5c96 093f
00000020: 95c6 b8be 5a55 d73d 2aea a0be f288 ac3e
00000030: bd8b 873e 442c d33e 7fb5 92be 93d0 ecbe
00000040: b702 a2bf beca ac3d 6916 9abf 9c38 34bf
00000050: 0a5a 903e c10a 3dbf bdfc debe 0eb5 cfbe
00000060: 1a50 193f dc10 04bf cfd4 a33e e9e8 4b3f
00000070: 8906 403e ebdc bcbd 74bf 0d3d 6323 373e
00000080: c0f1 01bf 89a9 ff3e 3138 4bbe a817 833d
00000090: 5b5e 273e d6e9 0e3e f67b 26bf 589e 473f
000000a0: 0e91 9a3f 23aa 343f f640 233e cbb3 433f
000000b0: d2a7 c73e 5989 d13e 5823 4b3f b82d a53f
000000c0: 23eb 293e 331f 9fbd 27ee fb3e 85aa 0f3f
000000d0: 6ab8 3b3f 3e51 813e 2acb c53e 0512 2c3f
000000e0: 2208 4abe c3a4 563f ef61 c13e 3c2f 503f
000000f0: 2341 453f 28dd 533f 51e7 c0be 9784 1f3f
00000100: 47b4 dc3e 1134 b83e 5b3c fb3e 57e0 5d3f
00000110: 0a2e 213f e615 2e3e a722 143f 0062 5d3f
00000120: 9820 27bc dc93 163f 817b 97be 3cf2 89bf
00000130: 80d5 33bf e007 433f acf9 123f 4963 c7be
00000140: 2680 d63e 125c 3fbf b34a 16be 79e7 3cbf
00000150: 114d 853d 9121 243b 684f 0f3f 34f2 7cbf
00000160: 6f97 17bf 6adc 26bf 67aa 163f fd4a 9bbf
00000170: 15c3 e13c fc04 39bd 4455 a5bd 15fa 36bf
00000180: 5735 853f c552 2a3f 3b4b 313f 38cc 043f
00000190: 75c5 6a3f adf2 a03e c8ad 1d3f da89 873f
000001a0: 5d05 5c3f 8333 303f 2f6e 2d3f 5f76 883e
000001b0: 2502 5d3f a645 133f 03e7 313f 8f02 fb3e
000001c0: 8c84 913c 78c6 6d3f 8a1f 533f bb4b 283f
000001d0: 4db0 bc3e 8cf3 e63e 8835 683f 6f50 0c3f
000001e0: 9bac 0f3f 7a6f 703e e08d 93be 6a14 cb3e
000001f0: abe7 9e3d ba03 38bd 13ce 82be 3a48 f43d
00000200: 95d2 913e 951e 393d abf0 b83d ae1e e53d
00000210: b3c5 f6bb bb44 c4be fc07 a53e 7a38 ac3f
00000220: 63fb 8b3d 9b98 9f3e 4675 dabc a9a4 6d3f
00000230: 19c3 b43d b86f f73c 670e 9c3a 18eb be3d
00000240: 4002 dbbe 5d01 d03e 5959 813e 26de b83f
00000250: 6e26 b13d 6672 963c 2d25 563c 0cce c63d
00000260: ceb0 043f cf30 afbe bc3e 1e3e 4517 1f3d
00000270: 3214 383e a854 3e3e fd4f c93e 0cb5 873f
00000280: dc05 913f 1dfb bb3e 4339 353e 0e40 b13f
00000290: 875c b23d ecc1 5c3d 18ff 383f 0ed6 853f
000002a0: 1d6a 833d 850b 7f3e 2e68 bc3e 9440 86bf
000002b0: 8458 3c3d 6ca5 13bf ec8c 8abf 217d 363e
000002c0: 422a 173f fdf9 703d 0792 e43e cfdb 0f3e
000002d0: 612e b7be 16b7 0ebf 9b14 ec3d 37e9 70bf
000002e0: 3ae0 b7be 5633 f63e fca3 843e cd3c 73bf
000002f0: b736 e13c c5f0 a63e fa99 dfbe c5fb debe
00000300: 68ed 0ebe 391f 4ebe 9ee7 0abf 9656 a63e
00000310: f283 24be 9a56 4c3e 5343 11bf 4abc 3e3e
00000320: 73ab 08bf 0956 cc3d ad3b f4be deea 30bf
00000330: ad8f be3e fd6f a43e db1d d2bd 0da3 07be
00000340: b6f1 aebd 546c 3cbd bce3 283e 7b67 693e
00000350: 716a 583e f4dc 9cbe e5ca 42be 3b65 d7be
00000360: 12ac b3bf 589c e9bd 1f40 54bf 5f9d 08bf
00000370: 1dd7 cb3e dec6 1ebf 66e3 d73e 486e 7e3e
00000380: 998c 29bf f0e5 cdbc cd2d 31bf 2b39 c53e
00000390: f977 f83e e459 d63e 3f8a dc3b 6cb9 4ebe
000003a0: 83b7 a6bf 8382 48bd 62ab 22bf 3a0b a1bd
000003b0: ed1f 013f f490 70bf 0af0 17be ba24 39bf
-1.3438889 0.005190697 -0.7774894 0.03206033 0.46393788 -0.68570006 -0.20217006 0.53745055
-0.36089006 0.105143264 -0.31428653 0.3369823 0.264738 0.4124471 -0.28654096 -0.4625288
-1.2657079 0.084371075 -1.2038089 -0.7039888 0.28193694 -0.73844534 -0.435522 -0.4056782
0.5988785 -0.51588225 0.31998298 0.7965227 0.18752493 -0.09221824 0.034606412 0.17884593
-0.50759506 0.49934033 -0.19845654 0.064009964 0.16344588 0.13956389 -0.650329 0.7797599
1.2075517 0.7057211 0.1594275 0.7644622 0.38995224 0.409251 0.79350805 1.2904577
0.16593604 -0.07769623 0.49205133 0.5611957 0.7332827 0.25257295 0.38631564 0.67214996
-0.19729665 0.83845156 0.3777003 0.81322074 0.77052516 0.8275933 -0.3767648 0.6231169
0.4310629 0.35977224 0.49069485 0.8667044 0.62960875 0.17000541 0.57865375 0.8647766
-0.010200642 0.58819366 -0.29586414 -1.0777049 -0.7024765 0.7618389 0.5741222 -0.38942936
0.41894644 -0.74749863 -0.14676933 -0.737907 0.0650884 0.0025044421 0.5598054 -0.9880707
-0.59215444 -0.65180075 0.58853763 -1.213226 0.027558843 -0.04517077 -0.08072904 -0.71475345
1.0406903 0.66532546 0.6925542 0.51874113 0.91707546 0.31435147 0.61593294 1.0588944
0.85945684 0.688286 0.6774625 0.2665281 0.863314 0.5752815 0.6949312 0.4902539
0.017763399 0.92880964 0.8247 0.65740556 0.36853257 0.45107687 0.9070668 0.5481023
0.5612275 0.23480025 -0.2881918 0.39664012 0.07759031 -0.04492543 -0.25547847 0.119278386
0.28480974 0.04519518 0.09030279 0.11187492 -0.007530892 -0.38333687 0.32232654 1.3454735
0.068350576 0.31171116 -0.026667248 0.92829376 0.088262744 0.030204639 0.0011906148 0.09322184
-0.42775154 0.4062604 0.2526348 1.4442794 0.08649908 0.018365096 0.013070387 0.09707269
0.5183228 -0.34216926 0.15453619 0.03884055 0.17976454 0.18586981 0.3931884 1.0602126
1.1329913 0.36715022 0.17697625 1.3847673 0.087090544 0.053895876 0.7226424 1.0455949
0.06416724 0.24906738 0.36798233 -1.0488458 0.045982853 -0.5767429 -1.0824256 0.1782117
0.59048855 0.058832157 0.4464266 0.14048694 -0.35777572 -0.55748117 0.11527368 -0.9410586
-0.3591326 0.4808604 0.2590636 -0.9501465 0.02749191 0.32605568 -0.43672162 -0.4355146
-0.13957751 -0.20129098 -0.5425967 0.32487935 -0.16065958 0.19954911 -0.56743354 0.18626514
-0.5338661 0.099773474 -0.4770178 -0.6910838 0.3721899 0.3211669 -0.10259601 -0.13245793
-0.085421965 -0.046001747 0.16493124 0.22793381 0.21134354 -0.30637324 -0.1902271 -0.4206942
-1.4036887 -0.11406773 -0.8291034 -0.5336513 0.39812556 -0.620222 0.4216568 0.24846756
-0.6623016 -0.025134057 -0.6921051 0.38520178 0.48529032 0.41865456 0.0067303474 -0.2018792
-1.3024753 -0.04895259 -0.6354276 -0.078634694 0.5043934 -0.9397118 -0.14837661 -0.72321665

sequential/dense_2/MatMul f4 [3, 10]
00000000: d7e9 313f 75b4 95bf cd02 423e 8bee 923f
00000010: a479 cabd 6201 8abf 84dd 9dbf 3edc 973f
00000020: 903f af3e 98e3 813f b601 34bf 8a4c c93e
00000030: 14a5 863f 8471 16bf 587d 763d ab7d 563f
00000040: eb96 c33f 38ea 3dbf 47c4 86be a78c aabf
00000050: a497 653d f48a b8bf 87fa 45bf f636 7fbf
00000060: 4eb6 9fbf 825d dd3e 33b7 a23e 7124 8abf
00000070: 99ae 943e 0dd0 e7be
0.69497436 -1.1695696 0.18946381 1.1479048 -0.09886482 -1.0781672 -1.2333226 1.1864088
0.34228182 1.0147581 -0.7031511 0.39316207 1.0519128 -0.5876696 0.06017813 0.83785504
1.5280432 -0.74185514 -0.26321623 -1.3324174 0.05605282 -1.4417405 -0.773354 -0.9969324
-1.247751 0.43235403 0.31780395 -1.0792371 0.29039457 -0.45275918
